model.pt (torch, 4039 bytes, 9 tensors)

fc1.weight f4 [8, 1]
0	0xbf557640	-0.8338356
1	0x3ca1fa9d	0.019772822
2	0x3f37f538	0.7185855
3	0x3f46eabd	0.7770193
4	0x3ec1cf40	0.37853432
5	0x3eaf496f	0.34235713
6	0x3f201c6a	0.62543356
7	0x3f044873	0.5167305

fc1.bias f4 [8]
0	0x3f17ec61	0.5934506
1	0x3f447388	0.76738787
2	0xbe322efc	-0.17400736
3	0xbf33025c	-0.69925475
4	0xbf129696	-0.57261026
5	0x3f4c0e26	0.7970909
6	0x3e873ba7	0.264127
7	0x3dd13969	0.10216028

fc2.weight f4 [8, 8]
0	0xbea7d57a	-0.32780057
1	0x3e8f5c0c	0.27999914
2	0x3d913f0e	0.07092105
3	0x3ded99f7	0.11601632
4	0x3e960dc5	0.2930738
5	0x3c0c3490	0.008557454
6	0xbeaf053f	-0.3418369
7	0x3e418756	0.18899283
8	0xbe27b4bd	-0.1637754
9	0xbe82cf57	-0.25548813
10	0x3e1ce4f8	0.1532172
11	0xbe57777a	-0.2104167
12	0x3e6201e5	0.22071035
13	0x3d00b27e	0.031420223
14	0xbd2e9b67	-0.042628672
15	0xbe8d4779	-0.27593592
16	0xbea452f5	-0.3209454
17	0xbe8ce00b	-0.2751468
18	0xbe4f4660	-0.2024169
19	0x3e4601fd	0.19336696
20	0x3e571166	0.2100273
21	0xbe88cdae	-0.2671942
22	0xbe928229	-0.2861493
23	0x3e1b9ddb	0.15196936
24	0xbf2a6e7f	-0.66574854
25	0x3e0df95d	0.13864656
26	0x3de54427	0.1119464
27	0xbe2db106	-0.1696206
28	0x3d824c64	0.063622266
29	0x3ef49ce7	0.47775957
30	0xbd095483	-0.033527862
31	0x3ee9dbe7	0.45675585
32	0xbdd399fe	-0.10332106
33	0xbd071635	-0.032980163
34	0x3dbd1fe3	0.092345975
35	0xbe607eb3	-0.21923332
36	0xbcdddaa4	-0.027081795
37	0x3e5c1e58	0.2149595
38	0xbe6a53d3	-0.22883539
39	0xbdc9e357	-0.09857815
40	0xbed42186	-0.41431826
41	0x3d8bbd7d	0.068232514
42	0x3e6dcb06	0.23221979
43	0x3ded1be6	0.11577587
44	0xbbc1d91b	-0.0059157736
45	0x3b39e816	0.0028367094
46	0x3eb95a7a	0.3620184
47	0x3f24567b	0.6419446
48	0xbe969dee	-0.29417366
49	0x3debd38a	0.11514957
50	0xbe307d8f	-0.17235397
51	0xbe51fa53	-0.20505647
52	0x3da26dfd	0.07931135
53	0xbe8973fc	-0.26846302
54	0x3e9a28df	0.30109307
55	0x3c9f9cdf	0.019483982
56	0xbcfc9c5c	-0.030836277
57	0xbe886f0c	-0.26647222
58	0xbdabaa28	-0.08382064
59	0xbe32442f	-0.17408822
60	0xbeac864b	-0.33696207
61	0xbd382d37	-0.044964995
62	0x3e3dd9a3	0.18540053
63	0x3ea8d287	0.3297312

fc2.bias f4 [8]
0	0xbe36d193	-0.17853384
1	0xbea0465b	-0.31303677
2	0xbe7d45c2	-0.24733642
3	0x3d2fd07d	0.04292344
4	0xbe9cf0a3	-0.3065234
5	0x3eee9dc1	0.46604732
6	0xbd202c53	-0.03910477
7	0xbea5c53f	-0.3237705

fc3.weight f4 [16, 8]
0	0x3e628321	0.22120334
1	0x3d8af3d3	0.06784787
2	0xbe7c7576	-0.24654183
3	0xbe2eb7be	-0.1706228
4	0x3dcf1c3c	0.10112807
5	0xbdcf37d6	-0.10118072
6	0x3cbd4886	0.023105871
7	0xbeb1ef3e	-0.3475284
8	0x3c26b705	0.010175471
9	0xbe088aee	-0.13334247
10	0x3d0498e2	0.032372363
11	0x3e06ef60	0.13177252
12	0xbe65bf65	-0.22436292
13	0x3ecbb72f	0.39788195
14	0xbea7c7e1	-0.32769683
15	0x3eaa8853	0.33307132
16	0x3e2df61b	0.16988413
17	0xbe558c8f	-0.208544
18	0xbe9a5059	-0.30139425
19	0xbe5a0a97	-0.21293102
20	0x3e90fca7	0.28317758
21	0xbe8ea49a	-0.27859956
22	0x3dea8525	0.114511766
23	0x3cf32165	0.02967901
24	0xbdc3a366	-0.0955265
25	0x3e6be86c	0.2303788
26	0x3de81c64	0.1133354
27	0xbea01287	-0.31264135
28	0x3e067381	0.13129999
29	0xbca6dc0e	-0.020368602
30	0xbe31070f	-0.17287849
31	0xbc5f77c4	-0.013639394
32	0x3ead1e1f	0.33812043
33	0x3e8e773e	0.2782535
34	0xbe833212	-0.25624138
35	0xbe2f2541	-0.17104055
36	0xbea6dff6	-0.32592744
37	0x3c3fa2e4	0.011696551
38	0x3e7f2cde	0.24919459
39	0xbd17a610	-0.037023604
40	0xbe2e6059	-0.17028941
41	0x3de1e391	0.11029733
42	0xbde1b9fb	-0.11021801
43	0x3b2ed4e3	0.0026677183
44	0xbe8242d0	-0.254416
45	0x3e5bd877	0.21469294
46	0xbdd63016	-0.104583904
47	0x3eafa5cf	0.3430619
48	0xbd4dfd5f	-0.05029046
49	0xbc1f4723	-0.00972155
50	0x3dc35642	0.09537937
51	0x3f1b1a01	0.60586554
52	0x3e625fd7	0.22106872
53	0x3e736d69	0.23772205
54	0x3bb51db3	0.005527222
55	0xbcf900cb	-0.030395886
56	0x3db89b9d	0.09014056
57	0xbd8ae4b0	-0.067819
58	0x3e9952aa	0.2994588
59	0xbe6dad34	-0.23210603
60	0xbe527660	-0.20552969
61	0x3eaddfde	0.3395986
62	0xbe5296ac	-0.2056529
63	0x3eaf4e34	0.34239352
64	0xbcab5948	-0.020916596
65	0x3e8edf07	0.2790453
66	0x3e1d3f83	0.15356259
67	0xbeae9476	-0.34097642
68	0xbdf49511	-0.11942495
69	0xbdfdc4d8	-0.123910606
70	0x3e950281	0.29103473
71	0xbe6d5ed5	-0.23180707
72	0x3db19a26	0.086719796
73	0x3e93e545	0.28885856
74	0x3b3530ca	0.0027647489
75	0x3e54a342	0.20765403
76	0x3e045971	0.12924744
77	0xbe8aa46b	-0.27078566
78	0x3d91f819	0.07127399
79	0xbeab246f	-0.33426234
80	0xbdab0e2c	-0.083523124
81	0x3d72d9c1	0.059289698
82	0x3e64c05d	0.22339006
83	0x3d92958e	0.071574315
84	0x3e7f287e	0.2491779
85	0x3f0f7017	0.5603041
86	0x3d2fb611	0.04289824
87	0xbe77fb65	-0.24216993
88	0x3e255d20	0.16148806
89	0xbdeaabbf	-0.11458539
90	0x3eab2791	0.33428624
91	0xbe60f9fd	-0.21970363
92	0xbe98643b	-0.2976397
93	0x3d865941	0.065599926
94	0x3ea38384	0.31936276
95	0xbe996041	-0.29956248
96	0xbe3cbd75	-0.18431647
97	0xbca61f58	-0.020278618
98	0x3d03b701	0.032156948
99	0x3e02b72a	0.12765184
100	0x3da11601	0.07865525
101	0x3d2bd902	0.041955
102	0xbd8d3062	-0.06893994
103	0xbe90c7d3	-0.28277454
104	0xbdcce2b5	-0.100041784
105	0xbe4ca53e	-0.1998491
106	0x3dc3a427	0.09552794
107	0x3ecb809b	0.39746556
108	0xbe4d3c27	-0.20042478
109	0x3ee87e75	0.4540898
110	0x3e3dc8f4	0.18533689
111	0x3d365b1a	0.044520475
112	0x3e4f2ae6	0.20231208
113	0x3e930a78	0.28718925
114	0xbea0b90a	-0.31391174
115	0xbe92b398	-0.28652644
116	0xbdae7417	-0.08518236
117	0x3d938300	0.07202721
118	0x3e5dfe8f	0.21679138
119	0x3e086b54	0.13322192
120	0x3e2971be	0.16547295
121	0xbe712209	-0.2354814
122	0x3e623124	0.22089058
123	0x3f19d5c0	0.6009178
124	0xbe86ca15	-0.2632605
125	0x3f13f472	0.5779487
126	0xbead8066	-0.33887023
127	0xbeb37a6e	-0.35054344

fc3.bias f4 [16]
0	0xbe3397f0	-0.17538428
1	0x3e32702c	0.17425603
2	0x3d546d03	0.051861774
3	0xbdbaa203	-0.091129325
4	0xbdcf19b2	-0.10112323
5	0x3e819c1a	0.2531441
6	0x3ec7a1c3	0.38990602
7	0xbe5e266f	-0.21694349
8	0x3cb2d153	0.02182833
9	0x3d88f512	0.066873685
10	0x3ecfa1d6	0.4055316
11	0xbd234a62	-0.03986586
12	0xbe35a24a	-0.1773769
13	0x3eb540eb	0.3540109
14	0x3c534038	0.012893729
15	0x3e923cc3	0.28561983

fc4.weight f4 [4, 16]
0	0xbe7a4c30	-0.24443126
1	0xbc89f8df	-0.016842304
2	0xbe2d5ff4	-0.16931134
3	0x3d1fc1d8	0.039003223
4	0x3e6071c6	0.21918401
5	0xbb6637de	-0.0035128514
6	0x3e27c7f2	0.16384867
7	0x3d8830b0	0.066499114
8	0x3d754a10	0.059885085
9	0x3e21b35e	0.1579108
10	0x3e4ba694	0.19887763
11	0xbe3f58bc	-0.18686193
12	0xbdd25168	-0.10269433
13	0xbe238404	-0.15968329
14	0x3d9b7884	0.07591346
15	0xbc4864b8	-0.0122310445
16	0xbd7b8330	-0.061404407
17	0xbddb30e0	-0.107026815
18	0x3d1a1bd0	0.03762418
19	0x3d85ec94	0.06539264
20	0x3db5dcc8	0.08880001
21	0x3dc3b938	0.09556812
22	0xbe424fc4	-0.1897574
23	0x3dc51ad0	0.09624255
24	0x3e3626fe	0.17788312
25	0x3e4bbe20	0.19896746
26	0xbe443522	-0.19160894
27	0x3e657868	0.22409213
28	0xbd81ccdc	-0.06337902
29	0xbdef7cbc	-0.11693713
30	0xbd9b4bac	-0.07582793
31	0xbe4c4f9e	-0.19952247
32	0x3e4e1c80	0.2012806
33	0x3de111fa	0.10989757
34	0xbdb9ee02	-0.090785995
35	0x3e1de3c4	0.15418917
36	0xbd94664c	-0.07246074
37	0x3eb28bc8	0.3487227
38	0x3ec05cb1	0.37570718
39	0xbcbeec78	-0.023306116
40	0xbdfa4bab	-0.12221464
41	0xbdf42205	-0.11920551
42	0x3ecfd129	0.40589264
43	0x3d4f6180	0.050630093
44	0xbd74d2f1	-0.059771482
45	0x3eb5d1b0	0.3551154
46	0xbdbdae65	-0.09261779
47	0x3e628147	0.22119628
48	0xbe2fe390	-0.17176652
49	0xbd85dd88	-0.06536394
50	0xbe486ea2	-0.19573453
51	0xbe1c56ae	-0.1526744
52	0xbe2de1b2	-0.16980627
53	0xbe5b9748	-0.21444428
54	0xbe4da9de	-0.2008433
55	0x3e5aad6c	0.21355218
56	0xbe2891ca	-0.16461864
57	0x3d6cb128	0.057786137
58	0x3cd22510	0.025652438
59	0xbd8409d4	-0.06447187
60	0x3e7e7b0a	0.24851623
61	0x3c77d420	0.015126258
62	0x3e00d87a	0.1258258
63	0xbdcb68f0	-0.099321246

fc4.bias f4 [4]
0	0xbe4f2cbd	-0.2023191
1	0xbe6da96e	-0.23209164
2	0x3e29b157	0.16571556
3	0xbdd74e70	-0.10513008

fc5.weight f4 [1, 4]
0	0xbce8e61a	-0.028430033
1	0x3eed40de	0.46338552
2	0x3ecd7a13	0.40132198
3	0xbe886366	-0.26638335
